gdo_voicebot/grammar_correction_service/bert-base-uncased-GDO-trained.pth (torch, 4071 bytes, 1 tensors)

weight f4 [1, 768]
000000 8c 8e 62 3c 70 39 41 3c de 87 8c 3a 9f 35 84 bc
       0.013827931 0.011793479 0.0010721644 -0.01613885
000010 fe 11 31 3c 9e 48 c7 bb 24 32 88 3c de 5e bf 3c
       0.010807512 -0.0060816547 0.016625471 0.023360666
000020 bf 3b 99 3c 43 3d 5f bc ee 03 49 bc 49 f5 03 3d
       0.018705247 -0.013625446 -0.012269003 0.032216344
000030 f4 2e 80 bc 09 59 ef bb 67 e7 34 3d cb 30 75 bc
       -0.015647389 -0.007304315 0.044165995 -0.014965246
000040 a4 d2 0c 3d 0f aa 1e 3d f5 83 03 bc 20 0d f0 3b
       0.03438057 0.0387364 -0.0080270665 0.0073257834
000050 8b ef 8c 3c 78 4e fc 3c 39 ef f0 bc 0f ba ff 3b
       0.017204067 0.030799136 -0.029410945 0.0078041623
000060 11 1a e5 3a 49 b6 2b bb f5 83 be 3a 2a a0 40 bc
       0.0017479082 -0.002620118 0.0014535176 -0.011756936
000070 ef db e4 3c 84 4e b1 bb 1d dc b9 3a 96 53 29 bd
       0.027936904 -0.005410971 0.0014179979 -0.04133948
000080 e7 aa da bc bd 80 ac 3b 1c 99 5e 3c 1b 8b bd 3c
       -0.02669282 0.0052643702 0.013586309 0.02313762
000090 1e 17 c6 3c 95 13 1c 3c a0 14 5a ba fd 72 0f bd
       0.024180945 0.009526153 -0.00083191134 -0.03502177
0000a0 3a ab 18 bc 29 d0 34 3c c5 3b 0d bd 6d 48 d3 3c
       -0.009318167 0.011035957 -0.03448083 0.025791371
0000b0 cf c9 e9 3c 31 34 a0 3c 11 3d 98 ba da 28 30 ba
       0.028538613 0.019556137 -0.0011614879 -0.00067199545
0000c0 0c 3d 98 3c 04 fb b6 3c 31 88 ac 3c 3b 5d 87 bc
       0.018583797 0.02233649 0.021061035 -0.016523948
0000d0 ae 31 15 3d 69 25 61 3c cc e8 aa 3b d6 f9 af bb
       0.03642433 0.013741829 0.00521574 -0.005370359
0000e0 bd ff 64 bc 4e 96 2c 3c 73 c6 0b bd 33 c5 94 3c
       -0.013976988 0.010533882 -0.034124803 0.018160438
0000f0 5d 17 8d 3c 2e 16 ca bc 0c c2 28 3c 97 94 69 bc
       0.017223055 -0.02466878 0.010300171 -0.014256618
000100 3d 12 67 3b 4d e1 86 3b 80 4b a2 3c 1b 44 1d 3d
       0.0035258674 0.0041162134 0.019811392 0.03839503
000110 44 ed da ba f3 03 2d 39 2f d8 d6 bb 0b 2c 48 bb
       -0.0016702791 0.00016500037 -0.006556533 -0.003054383
000120 ae d1 09 3d a1 73 aa bc 92 fb e6 3b ad 88 04 3d
       0.03364723 -0.02080709 0.0070490325 0.032356907
000130 69 91 d1 3c c9 b9 a5 bb 97 0b e6 bc 1a 1d d1 3b
       0.025582032 -0.0050575477 -0.028081698 0.006381643
000140 88 b3 39 3b 29 31 69 3c b4 15 75 3c 60 d6 8c 3b
       0.0028335769 0.014232912 0.014958788 0.0042980164
000150 f8 90 29 3c a8 62 d2 bc b8 3c 0d 3d 2b 52 9c 3b
       0.010349505 -0.025681809 0.034481734 0.0047705374
000160 d8 4d a6 bc 67 2b 80 bc 1c c5 6d bd 3e df 91 3c
       -0.02030079 -0.015645696 -0.058049306 0.017806645
000170 3d bb ec 3c 40 b9 cf bc c3 3a 6b bc f1 c8 41 3c
       0.028897876 -0.025356889 -0.014357272 0.011827693
000180 89 4d de 3c 06 78 21 bb 13 16 63 bc 49 23 f4 bc
       0.027136581 -0.002463819 -0.013860243 -0.029801982
000190 3c 82 8d ba da 6a f7 3b 98 27 34 bd 42 b6 06 3c
       -0.0010796259 0.0075505795 -0.043983072 0.008222165
0001a0 df dd f9 3c 78 ee be bb 48 55 87 3b 86 1f ed bc
       0.030501304 -0.0058267675 0.0041300394 -0.028945696
0001b0 36 d6 07 bd a2 e8 9a bc 67 d2 d4 3b 6b 35 76 3d
       -0.03316327 -0.018909756 0.0064948085 0.060109537
0001c0 6d ae 91 3c c3 6a 4b 3c cf 74 83 ba fc 17 0a 3d
       0.017783368 0.012415591 -0.0010029319 0.03371428
0001d0 d9 d4 9b bc c9 b9 01 bb af 6c 63 3c 17 b1 df bb
       -0.019022392 -0.0019794574 0.013880893 -0.0068265307
0001e0 de cf 19 3c de 81 b0 bb 96 e7 19 bd 23 30 df bc
       0.009387938 -0.005386575 -0.037574373 -0.027244633
0001f0 56 9b 06 b9 66 d4 6b 3a 75 09 a3 bc f1 94 34 3c
       -0.00012837103 0.00089961884 -0.01990197 0.0110218385
000200 ee ea b9 bc 90 87 bf bc 5a 2b ef 3b 30 b1 94 3c
       -0.022695031 -0.02338007 0.007298869 0.018150896
000210 7c ed a1 b9 38 03 24 bd 8f 3b 8c bb 02 d4 3c bb
       -0.00030885253 -0.040042132 -0.004279561 -0.002881289
000220 c0 37 d1 3c 98 d2 85 3c 2d 74 fd 3b b4 c5 dc 3b
       0.025539279 0.01633577 0.0077347965 0.0067374352
000230 b7 ff 1e 3b 25 19 73 3b 8e 12 23 bc bd 05 0d bc
       0.0024261305 0.0037093845 -0.009953154 -0.008607325
000240 dd 2b 18 bc 6f ab 70 bc 94 a6 fa bc 89 bc e2 bc
       -0.009287802 -0.01468931 -0.030597009 -0.027677791
000250 06 36 a8 3c 56 d3 bd ba a7 1a 0a 3d 81 4b dc 3b
       0.020533573 -0.0014482539 0.033716824 0.006722868
000260 83 c1 a3 3c c3 25 15 bc 8c 9b 56 3d 9f 49 21 bc
       0.019989735 -0.009103241 0.052394435 -0.009844213
000270 83 04 b7 bb 93 b9 7d 3b 48 92 63 3d e7 4e 87 bc
       -0.0055852546 0.0038715347 0.055559427 -0.016517116
000280 6f b2 34 3d d3 1e 43 bb 82 e1 03 bc 32 38 05 3d
       0.04411548 -0.0029773011 -0.008049371 0.032524295
000290 24 78 e2 bc 34 c5 5a 3b f1 e9 37 3c ac f2 20 3d
       -0.027645178 0.0033381702 0.01122521 0.03929393
0002a0 1d ca 43 3a 30 2c bb 3c e9 69 0d 3c 68 1b 98 3c
       0.0007468777 0.022848219 0.008631208 0.018567756
0002b0 0e e7 42 3d 59 de 86 bc ed 67 85 bb bb de b2 3c
       0.047583632 -0.016463445 -0.004071227 0.021834722
0002c0 3a cc 05 3b fb c6 0d bc c3 63 88 3c 7a 98 47 bc
       0.0020415918 -0.008653398 0.016649133 -0.012182349
0002d0 2a eb 20 bc 44 35 86 3c a8 62 0a 3b da 06 07 3d
       -0.0098216925 0.01638282 0.0021115933 0.03296552
0002e0 f7 23 34 bc fb ea ff bb 38 37 55 3c 7e 62 81 bc
       -0.010994903 -0.0078099943 0.013013653 -0.015794035
0002f0 50 a4 d5 3c 63 48 c6 bb b5 cb f6 3c 1a dc 1b 3b
       0.026079327 -0.0060511096 0.030126432 0.0023782314
000300 46 55 22 bc e6 c4 03 3d 84 e1 24 bc c5 93 80 3b
       -0.009908026 0.0321702 -0.010063533 0.0039238655
000310 dd 06 8b 3c 1b 0b d8 3c 68 ad 8d bb ca 9b 8d 3c
       0.016971046 0.026372483 -0.00432365 0.0172862
000320 42 0c 12 bd c1 44 34 bc a2 f1 0c 3a d3 da 94 bc
       -0.03565622 -0.01100272 0.0005376582 -0.01817075
000330 f7 db 18 bc b9 92 46 bb 2e 03 3b bb 8f 03 28 3d
       -0.009329787 -0.0030299856 -0.002853583 0.04101902
000340 d5 dc 0f 3b 91 2c b5 bc 30 48 8e bb 5b 24 97 ba
       0.0021951695 -0.022115977 -0.0043421015 -0.001153122
000350 be 50 5b 3c 7d 8a 27 3b 96 e6 6b 3a 73 2b d5 3c
       0.01338595 0.0025564723 0.00089988986 0.026021695
000360 bc a6 8e bc 17 ac ab 3b 67 f2 61 bc 66 15 af 3c
       -0.01741349 0.0052390206 -0.013790703 0.021372508
000370 68 3e 2b 3d ab 21 24 bd 23 6c 84 bd 4a 4f df 3c
       0.041807562 -0.04007117 -0.06465938 0.027259488
000380 4a 69 d0 3c f4 8e ca ba d4 df c1 bb 6d fb 28 3d
       0.02544083 -0.001545398 -0.005916575 0.041255403
000390 6e b7 9d 3c 43 83 c8 3b a6 c3 9f 3c 9c af 32 3a
       0.019252505 0.0061191632 0.019502472 0.0006816329
0003a0 cf 02 6a bd 95 2d 02 bb fb 11 dd bc c9 0b 38 bd
       -0.057131585 -0.0019863595 -0.026986113 -0.044933114
0003b0 e1 0c 1d bd f2 5a 33 bb 7f 23 3c bd fc 39 3f bc
       -0.03834236 -0.002736744 -0.04593229 -0.011671539
0003c0 73 29 c1 bc 8b 81 99 bc f6 3d a5 bc 0d 1f f7 3c
       -0.023579335 -0.018738529 -0.020171147 0.030166173
0003d0 78 6b 1a bc a7 09 8d 3c 1f b3 a9 3c 87 70 4d 3b
       -0.009425037 0.017216517 0.020715294 0.003134759
0003e0 47 71 15 39 cd 70 10 3b f6 1a cb 3b 24 1d 1c ba
       0.00014251946 0.002203989 0.0061982824 -0.000595527
0003f0 05 59 95 3c 5c 8f 63 bc a4 e4 ae bc 3e ed 82 3a
       0.018230924 -0.01388916 -0.021349259 0.0009988917
