gdo_voicebot/grammar_correction_service/bert-base-uncased-GDO-trained.pth (torch, 4071 bytes, 1 tensors)

weight f4 [1, 768]
000000 c1 8d 04 bc c5 aa 39 bc 3c 66 af bc 4b 64 4e bb
       -0.008090437 -0.011332219 -0.021411054 -0.0031492885
000010 1b bc c7 3c 52 7f 34 3c 7d b1 d5 3b cb 3e 34 3d
       0.024381688 0.011016684 0.0065214024 0.044005197
000020 79 a4 b2 bc 6e 0f 38 bc ad 85 cb 3b 14 25 74 ba
       -0.021806942 -0.0112341475 0.0062110038 -0.00093133864
000030 2d 0e 9e 3b 2d 1a b9 bc b8 79 ac bc 9d c3 5c bc
       0.004823467 -0.02259549 -0.021054134 -0.013474372
000040 54 00 64 bc 54 e7 8f 3c ea 37 18 bb ad a6 da bc
       -0.013916094 0.01756636 -0.0023226687 -0.026690805
000050 b1 14 31 bc 3d 68 0a 3c 6d 8f 0f bd 2d e1 02 3c
       -0.010808156 0.008447704 -0.03504889 0.007988256
000060 23 c3 c4 bc 32 df c7 bc b4 a0 08 bc 18 ef 8c 3b
       -0.02401883 -0.02439842 -0.008339096 0.004300963
000070 c1 d4 a1 bc 1f d5 0f bd e1 34 b5 3c 1b e5 ed 3c
       -0.01975477 -0.035115357 0.022119941 0.02903991
000080 7a 67 57 3c cd 4f 24 3c cb ef a7 bc e5 c9 24 3b
       0.013147229 0.010028792 -0.020500084 0.0025144753
000090 2b 66 84 bc d1 d9 2b bd 56 0d ae bc f8 32 02 3d
       -0.016161999 -0.041955773 -0.021246593 0.03178689
0000a0 60 a2 82 3c 43 e2 b8 bc 16 9d ea 3b d2 53 8a bc
       0.015946567 -0.022568827 0.0071598394 -0.016885672
0000b0 38 ab 0a 3d 9c f2 70 bc 77 73 ea 3c 47 3f 01 3d
       0.033854693 -0.01470628 0.028619511 0.031554487
0000c0 09 22 ca 3c 0a c5 bb bc c8 15 bc bc 35 5b b2 3b
       0.024674432 -0.022921104 -0.022959605 0.0054430016
0000d0 0b 94 81 bc 9e d4 03 3d b2 65 37 3c 62 00 e7 bc
       -0.015817663 0.03218519 0.01119368 -0.028198425
0000e0 c8 40 05 3d b3 50 40 bc 1a 7c 00 3d 82 25 dc 3b
       0.032532483 -0.01173799 0.031368352 0.0067183385
0000f0 f1 9b 93 3c e0 f1 95 bc 56 b3 0c bd b0 8c a0 3c
       0.018018695 -0.018303812 -0.034350716 0.019598335
000100 dc e1 84 3c fa 51 2c bc f2 5f 68 3c 9b df eb bc
       0.01622098 -0.010517592 0.014183031 -0.028793147
000110 be 1f 94 bb 39 28 9f bc 1e f9 13 3c ed 6c 99 3c
       -0.0045203855 -0.01942836 0.009031562 0.018728698
000120 de cc 07 3d 53 38 34 bc a5 48 8e bb fa 3b ae bc
       0.03315436 -0.010999757 -0.004342156 -0.021268833
000130 87 b3 e4 3c 6b f6 9f 3b 57 c7 cc 3c 10 ef f2 bc
       0.027917637 0.0048816702 0.024997396 -0.02965501
000140 f9 25 d6 bb 42 a3 52 3a 69 0a b0 bc 3f da 64 bc
       -0.0065352884 0.00080351916 -0.021489339 -0.01396805
000150 4b 8e 98 3b a2 c9 fa bb 8c 09 90 3c 68 da 9e 3b
       0.0046556345 -0.007653431 0.017582677 0.0048478134
000160 8b dd 0a bd bd cd 93 3c 4d 53 9b 3c 0b 4b 9e bb
       -0.033902686 0.01804244 0.01896062 -0.004830723
000170 ad b9 47 3c 85 1c c3 3c ba f0 00 3d cf 60 c4 3c
       0.012190265 0.02381731 0.031479575 0.023971943
000180 c7 d2 e8 3b 7e b0 13 b9 50 12 72 b9 fe a3 9a 3a
       0.0071052047 -0.00014084761 -0.0002308574 0.0011798141
000190 93 3c 49 3c ef 48 14 bd af 85 86 3c 71 0c 01 3c
       0.012282508 -0.036202367 0.016421167 0.007876501
0001a0 ad 3b 8c bc 41 2b 68 3c b4 ee 01 3d e6 57 a7 3c
       -0.0171183 0.014170469 0.031721786 0.020427655
0001b0 86 e4 6e bc 5f b9 34 ba 9e f6 b9 3c 02 3a 9a bb
       -0.014580851 -0.00068940775 0.022700604 -0.004706622
0001c0 42 d1 e0 ba 06 0e 4a bc 00 8d 98 3c de c7 10 3d
       -0.0017152207 -0.012332445 0.018621922 0.03534686
0001d0 0a 51 f8 bb d5 1e 08 bd 33 b4 83 3c 45 68 4b 3b
       -0.00757802 -0.03323253 0.016077137 0.0031037491
0001e0 7a fc 0d bc 41 00 f8 bc 76 60 c1 3c 07 23 75 bc
       -0.008666152 -0.030273559 0.023605566 -0.014961964
0001f0 fa 38 1a 3c 70 5f e8 bc 03 c3 cd bb 85 c7 fe 3c
       0.009412998 -0.02836582 -0.0062793507 0.031100998
000200 24 28 ed 3c b0 7f cd 3c f7 ed 09 bd 46 2f 9f bc
       0.028949805 0.0250853 -0.033674207 -0.019431721
000210 59 50 eb 3c d1 a4 06 bd 6b 0b 59 bc 8d d5 85 3b
       0.028724836 -0.032872025 -0.013247351 0.004084295
000220 c9 f0 ce 3c ce 4f 5a bc 47 2b af bc 86 15 e4 bb
       0.0252613 -0.013324691 -0.021382941 -0.0069605736
000230 17 99 e6 3c e2 e6 c3 3c 62 68 da 3c 2a 93 71 3c
       0.02814917 0.023913804 0.026661102 0.014744559
000240 72 c5 f0 3c b5 e0 bc 3c cc a5 b7 bc d5 2f cc 3b
       0.029391024 0.023056367 -0.022417925 0.006231288
000250 a4 f1 0e bc b2 3f 03 bd 89 9e d4 ba 7e b0 85 ba
       -0.008724604 -0.032043166 -0.0016221564 -0.0010199693
000260 d5 5c ca bc f4 38 73 ba ca ea df 3c c5 3d fe 3c
       -0.024702469 -0.0009278201 0.027333636 0.031035313
000270 0c cf 87 3c a5 b3 ef bc 21 7a 8e bc ae eb b4 bb
       0.01657822 -0.029260466 -0.01739222 -0.0055212593
000280 a9 2b 93 3b 8c 91 75 bc 8b 56 8c bc 56 d8 91 bc
       0.0044912887 -0.014988314 -0.01713111 -0.017803352
000290 3a be 0d 3b 79 ba 95 3b c8 c0 86 bc f8 2b 4f bc
       0.0021628276 0.0045693484 -0.016449347 -0.01264476
0002a0 70 1d 05 ba cf 28 00 3d b1 c1 f5 bc 8f 26 c9 bc
       -0.0005077934 0.031288918 -0.029999586 -0.024554519
0002b0 c9 73 80 3c 1d be b5 3c 0b 43 5d 3c 09 48 17 3c
       0.01568021 0.02218538 0.013504754 0.009233483
0002c0 36 77 2b 3c 9b a9 a5 3a 70 48 63 3b d2 40 c8 bc
       0.010465434 0.0012639047 0.0034680627 -0.024444971
0002d0 87 09 23 3c ed 7f 04 3c 0c 4e 8b 3a 4a ff 0d 3d
       0.009951002 0.0080871405 0.0010628118 0.03466729
0002e0 90 81 06 3d 1b a6 cc bb 5b f5 36 bc 8b 8c 09 bd
       0.032838404 -0.0062453873 -0.011166896 -0.033581298
0002f0 f5 e1 91 ba c5 33 07 bc 7b 05 02 3d cb 09 ff b9
       -0.0011129963 -0.008252089 0.031743508 -0.00048644686
000300 20 b6 06 bd 90 27 ba bb b4 2b 9d 3c 5e cf 8c bc
       -0.03288853 -0.0056809857 0.019185878 -0.017188724
000310 e9 d0 d5 3c 42 b2 9b bb 5b 8c 48 bc f3 61 dd 3c
       0.026100593 -0.0047514746 -0.012240495 0.027024245
000320 80 19 74 bb 72 2e f0 3c ef 52 c0 3b 2f 52 e2 3c
       -0.0037246644 0.029319022 0.0058692615 0.027627079
000330 be 14 df bc e8 bb 39 3c 83 86 dd bc 72 b4 9b 3c
       -0.02723157 0.011336304 -0.02704168 0.019006941
000340 42 60 88 3c 64 1b a8 ba 51 2f df 3c 6f 78 89 3c
       0.016647462 -0.0012825546 0.027244242 0.01678106
000350 e0 dd 80 3b 25 38 27 3d a8 06 05 3d cb a4 c9 bc
       0.0039326996 0.040825028 0.03247705 -0.024614712
000360 d7 84 76 bc 77 b9 51 3b 3a 98 47 bb d9 55 84 bc
       -0.01504632 0.0032001415 -0.0030455724 -0.016154217
000370 6b 26 03 bd d9 e9 e2 bb d0 68 d5 bc 63 80 43 bc
       -0.03201906 -0.0069248495 -0.026050955 -0.011932465
000380 c8 22 79 3b d5 47 02 3d e6 6e d6 bc 9d d9 92 3c
       0.0038015116 0.031806786 -0.026175927 0.017926032
000390 b6 19 ff bc ad 43 b5 3c 62 9e 24 3c e9 05 c2 bc
       -0.03114019 0.022126997 0.010047527 -0.023684459
0003a0 7b b5 dc 3c 60 c1 13 bc d6 4d 8d 3c bd c3 b8 bc
       0.026942005 -0.009018272 0.01724903 -0.022554273
0003b0 20 68 b5 3c f2 05 1a 3b 87 a7 99 bc 3f 86 61 3c
       0.022144377 0.002350208 -0.018756641 0.013764917
0003c0 c0 22 a4 bc b8 45 6c bc c9 23 83 b9 df f1 47 bc
       -0.020036101 -0.014420919 -0.0002501293 -0.012203663
0003d0 6c 41 cd 3c 9a d0 10 bd 07 2d a2 bc 71 49 0d 3d
       0.02505561 -0.035355188 -0.019796861 0.034493867
0003e0 f1 e8 fe 3b 10 d7 9e 3b bd 2f 60 bb 85 d9 86 3b
       0.0077792336 0.004847415 -0.0034208142 0.004115286
0003f0 37 7a 95 3c 11 22 ec 3c 12 c7 a8 3b b5 08 68 ba
       0.018246753 0.028824838 0.005150684 -0.0008851395
