gdo_voicebot/grammar_correction_service/bert-base-uncased-GDO-trained.pth (torch, 4071 bytes, 1 tensors)

weight f4 [1, 768]
000000 cd 01 df 3c 52 e7 5b 3c fc cf 1b bc b9 ae 48 3c
       0.027222538 0.01342185 -0.009510037 0.012248688
000010 35 30 6f 3c 81 07 19 bc f8 44 50 bc 90 1f dc 3c
       0.014598896 -0.009340168 -0.012711756 0.026870519
000020 c5 9c 85 bc 61 a5 c3 ba 66 c1 3c 3b db a2 48 3b
       -0.016310105 -0.0014926606 0.0028801798 0.0030614648
000030 c7 22 54 3c 66 54 5b bc 79 72 13 3d 42 75 61 bc
       0.012947745 -0.013386821 0.03599784 -0.013760867
000040 94 b9 f1 39 e0 cd f6 ba cc 22 58 3c d9 e5 09 3c
       0.00046105369 -0.0018829666 0.01319189 0.008416616
000050 79 77 da 3c b3 a5 84 bc 01 0c c1 bc c0 6b cd 3b
       0.026668297 -0.016192293 -0.023565294 0.0062689483
000060 b1 ba 3f 3c 8c 6a cf 3c 17 77 f1 3c fe 55 64 bb
       0.011702226 0.02531936 0.029475732 -0.0034841294
000070 5d 96 c3 bb 9c 18 10 bd 21 d6 4c 3d c4 c3 94 3c
       -0.0059688524 -0.03517972 0.050008897 0.018159755
000080 ce 7e 98 3a 39 8c 88 ba 30 55 ed bb 54 46 fc 3b
       0.001163447 -0.0010417766 -0.007242821 0.0076988135
000090 c1 16 14 bc b4 a6 83 bc e0 98 ba bc 17 b5 e5 3b
       -0.009038628 -0.016070701 -0.022777975 0.007010113
0000a0 80 ce 0a bd 81 1a 69 bc e8 5b 9e 3b 67 59 67 3b
       -0.03388834 -0.01422751 0.0048327334 0.003530109
0000b0 1a 62 8b bb dd 9d 40 bc 7c 0a 6d 3c 54 4e 06 3d
       -0.004253638 -0.011756388 0.014467832 0.032789543
0000c0 0c 19 f3 3b 86 07 aa 3c f8 89 fe bb 2a aa 91 3c
       0.0074187573 0.02075554 -0.007767912 0.017781336
0000d0 44 04 0c bc 02 4d 5a bc ea 6a f9 3b f4 b7 83 3c
       -0.008545939 -0.013324024 0.007611622 0.016078927
0000e0 ca 96 93 bc f0 06 2a 3c 5e 65 84 bc 78 bc 38 3c
       -0.018016238 0.010377631 -0.016161617 0.011275403
0000f0 52 bb 79 3a ea f9 c3 bc 3d 47 be bc 2c e7 7f 3c
       0.0009526509 -0.02392288 -0.023227328 0.0156190805
000100 fa 22 5e bb b6 8e 03 3c 8e c3 02 3d cb bc 20 bb
       -0.003389536 0.00802963 0.031924777 -0.0024526592
000110 48 85 23 bc 4e e2 f0 bb 35 26 49 3c 34 a3 c4 3b
       -0.009980507 -0.0073511964 0.012277176 0.0060009006
000120 ee 87 94 ba 89 9a 66 bc 50 08 4f 3d 83 48 89 3b
       -0.0011332014 -0.01407493 0.050545037 0.0041895523
000130 88 73 50 3c 93 c1 23 bd a2 fa 5b bc c0 9a ad 3c
       0.012722857 -0.03997953 -0.013426455 0.021191955
000140 81 3b d1 bb 9a 88 10 3d 28 80 e4 bc 06 09 a2 bc
       -0.0063852672 0.035286523 -0.02789314 -0.019779693
000150 34 8b 11 3c b7 fc c8 bc bf 56 21 bc ba f3 b9 3b
       0.008883286 -0.024534566 -0.009847342 0.0056748064
000160 b1 e9 9f 3c c4 d3 c9 3b 2a 80 03 bd cf 0f ba 3c
       0.019520612 0.0061592776 -0.03210465 0.022712616
000170 17 e0 0a bb b6 33 8b b9 b8 9e 7b 3b 0f f4 33 bc
       -0.0021190697 -0.00026550674 0.0038394164 -0.010983481
000180 29 73 d0 bb 33 46 97 3b 55 83 70 bc 0a 1b 0b bd
       -0.0063613844 0.0046165227 -0.0146797495 -0.033961333
000190 df b0 1e 3d ce fd 2b bc 48 cc 91 3c 8a a8 9b 3c
       0.038742896 -0.0104975235 0.017797604 0.019001264
0001a0 b3 d8 8b 3c 71 8b 0f 3d 64 3d e4 3b 64 16 b3 bc
       0.017071104 0.03504509 0.006965326 -0.021861263
0001b0 ed f4 4c bc 09 45 9e 3c e0 93 94 bb b1 1f 1d 3c
       -0.012509567 0.019320028 -0.0045342296 0.009590075
0001c0 92 1d 8c bc dc 9d 88 bc 57 04 43 bb 18 cc ae 3b
       -0.017103944 -0.016676836 -0.0029757225 0.0053343885
0001d0 4b 7a 53 bc 2e d9 1a b8 0f a5 d2 bc 56 78 fd 3b
       -0.012907575 -3.6918726e-05 -0.025713472 0.0077352924
0001e0 be 62 ce 3c fb ce 38 bd d5 f2 b4 bc 4a c4 81 3a
       0.025193568 -0.045119267 -0.022088448 0.0009900418
0001f0 02 b3 e7 bc a5 77 47 bc 4d a7 db bc 5a 78 7e 3c
       -0.0282836 -0.012174522 -0.026813174 0.015531624
000200 5c 1f 59 bc 40 2c 0c bd 78 39 b1 3b c0 64 87 3c
       -0.013252106 -0.034221888 0.005408462 0.016527534
000210 bd ce c8 3c e2 9a d0 b9 70 f9 07 bd b0 66 54 bc
       0.024512643 -0.00039788248 -0.033196867 -0.012963936
000220 c6 1b f6 3b 14 fd da bc ff 34 96 bc b0 f9 27 bc
       0.007510635 -0.026732005 -0.018335817 -0.010252401
000230 a0 6b c7 3b 18 4e 02 3c 70 47 26 3d e9 29 3c bc
       0.006085828 0.007953189 0.04059547 -0.011484602
000240 4a 88 9a bb 5c 46 46 3d 06 20 2f ba 4b 71 91 3c
       -0.004715954 0.048406944 -0.0006680492 0.017754218
000250 91 f6 ac bc e9 2d 06 bc d4 84 ba 3c 6d 63 86 3c
       -0.021113666 -0.008189657 0.022768416 0.016404832
000260 b0 0f a6 3b 3a fb fa bb 24 2f 06 3d 18 25 07 3c
       0.005067788 -0.007659343 0.0327598 0.00824859
000270 f7 6d 0a bc 88 3a 5d 3c 3f 18 fe 3c 2f 65 24 bd
       -0.008449069 0.0135027245 0.03101742 -0.04013556
000280 85 fa 11 3d cf 04 0a 3a c9 b8 1f 3c 74 62 f3 bb
       0.035639305 0.0005264999 0.009748646 -0.007427508
000290 4c 5b aa bc d0 97 04 3d aa 07 1e 3b 57 76 07 3d
       -0.020795487 0.032371342 0.0024113455 0.033071842
0002a0 f7 17 9e bb e4 3e ed ba 86 0e 08 3d ff 0e 1d 3d
       -0.004824634 -0.0018100408 0.033216976 0.03834438
0002b0 32 45 e1 3b 49 27 6c 3c cc 1a 61 bc 4c 28 19 3c
       0.006874704 0.014413663 -0.013739299 0.009347986
0002c0 4c 23 16 bc ab a8 20 3c ab 3b 62 3c 18 77 9e 3c
       -0.009163689 0.009805839 0.013808171 0.019343898
0002d0 04 69 e5 3b ee 00 ec 3c 88 5c cf 3c 3b 77 40 3b
       0.007001044 0.028809037 0.025312677 0.0029367942
0002e0 76 95 78 3b aa 9b ad bc f5 fa d0 bc 15 51 89 bd
       0.0037930883 -0.02119239 -0.02551029 -0.06704918
0002f0 c1 92 4f 3c 66 c1 03 bc 96 07 d0 3c ac bd 9e 3c
       0.012669266 -0.008041715 0.025394242 0.019377552
000300 97 8f 83 bc 68 7d ce bc be 06 ac bc dd a4 26 bb
       -0.01605968 -0.025206283 -0.020999309 -0.0025427856
000310 f8 d0 23 3a 28 ce b8 3c 5d 37 80 bb 51 91 3d 3c
       0.00062490953 0.02255924 -0.00391285 0.011570291
000320 89 dc 1a bd 0f 3d 2f bc 12 eb f2 bc 6e e1 ef bc
       -0.037807975 -0.01069571 -0.029653106 -0.029282298
000330 af dc a7 bc 07 dc 41 bc ee 8c 22 3c d2 8d fc 3c
       -0.020490972 -0.011832244 0.009921296 0.030829344
000340 a4 13 bd bc 94 75 8a bb 6b 69 84 bb 16 53 60 bc
       -0.023080654 -0.004225442 -0.004040887 -0.013691684
000350 2d be 58 3c 26 6a fb 3c 13 67 88 bc 00 fd 00 3d
       0.013228935 0.030690264 -0.016650712 0.03149128
000360 d7 a0 c0 bc 6f 57 28 bc f2 53 03 3c 50 5a 03 3c
       -0.023514194 -0.010274752 0.00801562 0.008017138
000370 43 96 59 bc 73 c8 ad 3c df f0 33 bc 80 91 32 3c
       -0.013280454 0.021213746 -0.010982721 0.010898948
000380 e7 c4 1f 3c d5 fe cb bb ef 96 3a 3c c9 44 60 3c
       0.009751535 -0.0062254467 0.011388524 0.013688275
000390 1b e0 f9 3c aa 0c a7 3c cf 8a 7f 3c 80 53 cf b9
       0.03050237 0.02039178 0.015597059 -0.0003954433
0003a0 eb bc d1 bc de 53 e8 bc 01 97 d9 bb db d0 50 3b
       -0.025602778 -0.028360303 -0.0066403155 0.0031862769
0003b0 43 30 96 bc e5 59 6f bc fe 95 0e bb 66 8f ec bb
       -0.01833356 -0.014608835 -0.0021756883 -0.007219243
0003c0 79 5c 0e 3b eb 97 8d 3b 95 a3 df ba 93 98 93 bc
       0.0021722598 0.0043210885 -0.0017062301 -0.018017089
0003d0 3d a1 65 3c 3d 88 de 3b 7a cc 5d 3c cc 49 50 3c
       0.014015493 0.006791143 0.013537521 0.012712907
0003e0 27 8e a6 3c a8 02 a3 3c 2b 4b 11 bc 8f 48 ef 3c
       0.020331455 0.019898728 -0.008868019 0.029209403
0003f0 a2 3d 34 bc 3e 0c d6 3c d8 42 eb bb e1 ab 8b bb
       -0.0110010225 0.026128884 -0.0071795993 -0.004262433
